…
2020-01-27 09:43:53.032446: I tensorflow/core/common_runtime/gpu/gpu_device.cc:1096] Device interconnect StreamExecutor with strength 1 edge matrix:
2020-01-27 09:43:53.032468: I tensorflow/core/common_runtime/gpu/gpu_device.cc:1102]      
###
###
Data amount: 22778
###
###
(None, 20, 134, 134, 16)
(None, 20, 23, 23, 16)
(None, 20, 67, 67, 16)
(None, 20, 400, 400, 16)
Model: "model_1"
_________________________________________________________________
Layer (type)                 Output Shape              Param #   
=================================================================
input_1 (InputLayer)         (None, 20, 400, 400, 1)   0         
_________________________________________________________________
time_distributed_1 (TimeDist (None, 20, 134, 134, 16)  1312      
_________________________________________________________________
time_distributed_2 (TimeDist (None, 20, 67, 67, 16)    0         
_________________________________________________________________
time_distributed_3 (TimeDist (None, 20, 23, 23, 16)    20752     
_________________________________________________________________
reshape_1 (Reshape)          (None, 20, 8464)          0         
_________________________________________________________________
time_distributed_4 (TimeDist (None, 20, 100)           846500    
_________________________________________________________________
lstm_1 (LSTM)                (None, 20, 100)           80400     
_________________________________________________________________
lstm_2 (LSTM)                (None, 20, 2)             824       
_________________________________________________________________
lstm_3 (LSTM)                (None, 20, 100)           41200     
_________________________________________________________________
time_distributed_5 (TimeDist (None, 20, 8464)          854864    
_________________________________________________________________
reshape_2 (Reshape)          (None, 20, 23, 23, 16)    0         
_________________________________________________________________
time_distributed_6 (TimeDist (None, 20, 67, 67, 16)    20752     
_________________________________________________________________
time_distributed_7 (TimeDist (None, 20, 134, 134, 16)  0         
_________________________________________________________________
time_distributed_8 (TimeDist (None, 20, 400, 400, 16)  20752     
_________________________________________________________________
time_distributed_9 (TimeDist (None, 20, 400, 400, 1)   145       
=================================================================
Total params: 1,887,501
Trainable params: 1,887,501
Non-trainable params: 0
_________________________________________________________________
Epoch 1/5
Using TensorFlow backend.
2020-01-27 09:43:58.517602: W tensorflow/core/framework/cpu_allocator_impl.cc:81] Allocation of 1638400000 exceeds 10% of system memory.
2020-01-27 09:44:01.808534: W tensorflow/core/framework/cpu_allocator_impl.cc:81] Allocation of 1638400000 exceeds 10% of system memory.
…
