…
2020-01-11 18:16:44.866570: I tensorflow/compiler/xla/service/service.cc:176]   StreamExecutor device (0): GeForce RTX 2080 Ti, Compute Capability 7.5
2020-01-11 18:16:44.866650: I tensorflow/core/common_runtime/gpu/gpu_device.cc:1096] Device interconnect StreamExecutor with strength 1 edge matrix:
2020-01-11 18:16:44.866668: I tensorflow/core/common_runtime/gpu/gpu_device.cc:1102]      
###
###
Data amount: 22776
###
###
(None, 20, 25, 25, 16)
Model: "model_1"
_________________________________________________________________
Layer (type)                 Output Shape              Param #   
=================================================================
input_1 (InputLayer)         (None, 20, 400, 400, 1)   0         
_________________________________________________________________
time_distributed_1 (TimeDist (None, 20, 100, 100, 16)  1040      
_________________________________________________________________
time_distributed_2 (TimeDist (None, 20, 25, 25, 16)    0         
_________________________________________________________________
reshape_1 (Reshape)          (None, 20, 10000)         0         
_________________________________________________________________
time_distributed_3 (TimeDist (None, 20, 100)           1000100   
_________________________________________________________________
lstm_1 (LSTM)                (None, 20, 100)           80400     
_________________________________________________________________
lstm_2 (LSTM)                (None, 20, 100)           80400     
_________________________________________________________________
time_distributed_4 (TimeDist (None, 20, 10000)         1010000   
_________________________________________________________________
reshape_2 (Reshape)          (None, 20, 25, 25, 16)    0         
_________________________________________________________________
time_distributed_5 (TimeDist (None, 20, 100, 100, 8)   8200      
_________________________________________________________________
time_distributed_6 (TimeDist (None, 20, 400, 400, 8)   0         
_________________________________________________________________
time_distributed_7 (TimeDist (None, 20, 400, 400, 1)   73        
=================================================================
Total params: 2,180,213
Trainable params: 2,180,213
Non-trainable params: 0
_________________________________________________________________
Epoch 1/5
Using TensorFlow backend.

   1/2847 [..............................] - ETA: 5:32:55 - loss: 0.2475
   2/2847 [..............................] - ETA: 4:07:28 - loss: 0.2398
   3/2847 [..............................] - ETA: 3:47:10 - loss: 0.2176
…
