…
2020-03-09 12:15:18.850870: W tensorflow/stream_executor/cuda/redzone_allocator.cc:312] Not found: ./bin/ptxas not found
Relying on driver to perform ptx compilation. This message will be only logged once.
2020-03-09 12:15:20.731497: I tensorflow/stream_executor/platform/default/dso_loader.cc:44] Successfully opened dynamic library libcublas.so.10.0
Data count: 23470
Train Data: 18776
Validation Data: 4694
(None, 19, 2500)
Model: "model_1"
_________________________________________________________________
Layer (type)                 Output Shape              Param #   
=================================================================
input_1 (InputLayer)         (None, 400, 400, 1)       0         
_________________________________________________________________
conv2d_1 (Conv2D)            (None, 400, 400, 16)      160       
_________________________________________________________________
max_pooling2d_1 (MaxPooling2 (None, 200, 200, 16)      0         
_________________________________________________________________
conv2d_2 (Conv2D)            (None, 200, 200, 16)      2320      
_________________________________________________________________
max_pooling2d_2 (MaxPooling2 (None, 100, 100, 16)      0         
_________________________________________________________________
conv2d_3 (Conv2D)            (None, 100, 100, 8)       1160      
_________________________________________________________________
max_pooling2d_3 (MaxPooling2 (None, 50, 50, 8)         0         
_________________________________________________________________
conv2d_4 (Conv2D)            (None, 50, 50, 1)         73        
=================================================================
Total params: 3,713
Trainable params: 3,713
Non-trainable params: 0
_________________________________________________________________
###
###
Data amount: 23470
###
###
Model: "model_2"
_________________________________________________________________
Layer (type)                 Output Shape              Param #   
=================================================================
input_2 (InputLayer)         (None, 19, 2500)          0         
_________________________________________________________________
lstm_1 (LSTM)                (None, 16)                161088    
_________________________________________________________________
repeat_vector_1 (RepeatVecto (None, 19, 16)            0         
_________________________________________________________________
lstm_2 (LSTM)                (None, 2500)              25170000  
=================================================================
Total params: 25,331,088
Trainable params: 25,331,088
Non-trainable params: 0
_________________________________________________________________
Epoch 1/20

   1/2347 [..............................] - ETA: 1:57:07 - loss: 0.3482
   2/2347 [..............................] - ETA: 1:00:12 - loss: 0.3333
   3/2347 [..............................] - ETA: 50:05 - loss: 0.3313  
…
