…
2020-02-09 16:55:27.934497: I tensorflow/core/common_runtime/gpu/gpu_device.cc:1304] Created TensorFlow device (/job:localhost/replica:0/task:0/device:GPU:0 with 10245 MB memory) -> physical GPU (device: 0, name: GeForce RTX 2080 Ti, pci bus id: 0000:01:00.0, compute capability: 7.5)
2020-02-09 16:55:27.935824: I tensorflow/compiler/xla/service/service.cc:168] XLA service 0x55f791ae3bd0 executing computations on platform CUDA. Devices:
2020-02-09 16:55:27.935841: I tensorflow/compiler/xla/service/service.cc:175]   StreamExecutor device (0): GeForce RTX 2080 Ti, Compute Capability 7.5
0
1
2
3
4
5
6
Model: "model_1"
_________________________________________________________________
Layer (type)                 Output Shape              Param #   
=================================================================
input_1 (InputLayer)         (None, 400, 400, 1)       0         
_________________________________________________________________
conv2d_1 (Conv2D)            (None, 400, 400, 16)      160       
_________________________________________________________________
max_pooling2d_1 (MaxPooling2 (None, 200, 200, 16)      0         
_________________________________________________________________
conv2d_2 (Conv2D)            (None, 200, 200, 8)       1160      
_________________________________________________________________
max_pooling2d_2 (MaxPooling2 (None, 100, 100, 8)       0         
_________________________________________________________________
conv2d_3 (Conv2D)            (None, 100, 100, 1)       73        
_________________________________________________________________
conv2d_transpose_1 (Conv2DTr (None, 100, 100, 8)       80        
_________________________________________________________________
up_sampling2d_1 (UpSampling2 (None, 200, 200, 8)       0         
_________________________________________________________________
conv2d_transpose_2 (Conv2DTr (None, 200, 200, 16)      1168      
_________________________________________________________________
up_sampling2d_2 (UpSampling2 (None, 400, 400, 16)      0         
_________________________________________________________________
conv2d_transpose_3 (Conv2DTr (None, 400, 400, 1)       145       
=================================================================
Total params: 2,786
Trainable params: 2,786
Non-trainable params: 0
_________________________________________________________________
Epoch 1/20
Using TensorFlow backend.
2020-02-09 16:55:36.420735: I tensorflow/stream_executor/platform/default/dso_loader.cc:44] Successfully opened dynamic library libcudnn.so.7
2020-02-09 16:55:37.368062: W tensorflow/stream_executor/cuda/redzone_allocator.cc:312] Not found: ./bin/ptxas not found
…
1168/1173 [============================>.] - ETA: 1s - loss: 9.6141e-04
1169/1173 [============================>.] - ETA: 1s - loss: 9.6167e-04
1170/1173 [============================>.] - ETA: 1s - loss: 9.6140e-04
1172/1173 [============================>.] - ETA: 0s - loss: 9.6155e-04
1173/1173 [==============================] - 545s 465ms/step - loss: 9.6133e-04 - val_loss: 7.6904e-04




Loss
[… Validation Loss
[… Model: "model_2"
_________________________________________________________________
Layer (type)                 Output Shape              Param #   
=================================================================
input_1 (InputLayer)         (None, 400, 400, 1)       0         
_________________________________________________________________
conv2d_4 (Conv2D)            (None, 400, 400, 16)      160       
_________________________________________________________________
conv2d_5 (Conv2D)            (None, 400, 400, 16)      2320      
_________________________________________________________________
max_pooling2d_3 (MaxPooling2 (None, 200, 200, 16)      0         
_________________________________________________________________
conv2d_6 (Conv2D)            (None, 200, 200, 1)       145       
_________________________________________________________________
conv2d_transpose_4 (Conv2DTr (None, 200, 200, 8)       80        
_________________________________________________________________
up_sampling2d_3 (UpSampling2 (None, 400, 400, 8)       0         
_________________________________________________________________
conv2d_transpose_5 (Conv2DTr (None, 400, 400, 16)      1168      
_________________________________________________________________
conv2d_transpose_6 (Conv2DTr (None, 400, 400, 1)       145       
=================================================================
Total params: 4,018
Trainable params: 4,018
Non-trainable params: 0
_________________________________________________________________
Epoch 1/20

   1/1173 [..............................] - ETA: 4:01:02 - loss: 0.1919
   3/1173 [..............................] - ETA: 1:20:51 - loss: 0.1798
   4/1173 [..............................] - ETA: 1:00:50 - loss: 0.1877
…
